Trained Models PyTorch/The Deep Weighted Sum Q-Learning/CurrentModel.pt (torch, 165311 bytes, 6 tensors)

l1.weight f4 [100, 304]
00000000: a870 93bd ef45 e6ba e9fe 71bc 042d bbbd
00000010: c5a7 0dbd 6303 a93c 4c26 fcbc dc70 043c
00000020: df08 89bd b0a4 a0bc 9416 14bd b3c7 0bbd
00000030: 933a 8cbd acaa 7dbd e62d 1bbd ca3e d1bc
00000040: 76ad f2bc 762d 04bd 7b6f 9bbd 4a7f f0bc
00000050: b93b 85bd b70a aabc f562 97bd 9aa0 a4bd
00000060: ec7c 47bc 2725 29bd 8e6b a3bd 4e08 63bd
00000070: 46ef 8bbd 3df0 353b d8d6 6abd b0e3 bbbd
00000080: 5504 00bd bb3c 5b3b a99c 91bd 4ac5 8abb
00000090: 4287 c1bd b964 1dbd 6647 efbc 47b5 d9bd
000000a0: 55cc 80bd 4eee a53b 426a 723b 72e3 59bd
000000b0: 7928 8bbd 6647 d43b f377 c6bc d2fc 94bd
000000c0: 3cda dbbb 8939 b23b dc5c 703b 4ae9 c8bd
000000d0: fe35 87bd 8b4f d2bd 538c c3bd 45d1 92bd
000000e0: 73a0 b9bd df90 d7bd 4422 69bd 9500 fdbc
000000f0: 9c4e f0b9 8323 94bd 1656 b9bd ef94 2bbc
00000100: f3b4 bcbd 7f73 99bd 1aa8 76bd 2a7b 08bc
00000110: 38e7 13bd 8d6b c3bd 2d42 8abc 8776 84bd
00000120: 1f90 7fbc 2cce 63bd 9a30 99bd 8909 bebc
00000130: 9e21 85bc 5a22 90bd 7841 f1bc d8b2 35bd
00000140: e1c9 bbbd b01a b9bc a214 0bbd f504 59bd
00000150: 5a8d b9bd eca7 ecbc 0fea 09bd 366c 0dbd
00000160: 64e5 66bd 6eb8 ed3a 448d 86bd e4a6 4ebd
00000170: 509c 95bd 3541 4abd d2b6 d4bd a0f1 cebd
00000180: 9be8 23bc c078 59bc 4711 0cbd d5c9 c0bd
00000190: e67b abbc cab7 c8bd e24d b7bd 3b5f c1bc
000001a0: c614 503d 04d9 883c f584 3d3d ca16 5f3d
000001b0: fa6b f23a 570c 9b37 76bb 0f3d fcf8 54bc
000001c0: 391a 99bc 8493 813d f9bd 4d3d 84ee 09bb
000001d0: 88a4 80bc 790a aebc 6d1d 23ba d4fb c23c
000001e0: eda6 803c b639 253d fda3 2d3c d49a 62bc
000001f0: dfe0 323c c314 dcbc b9a1 1cbc 5c27 18bc
00000200: c800 853d 0d9d 833c 9687 aabc ca63 dc3a
00000210: 60cb 3e3d 24d0 80bc 5325 1a3d b307 ad3b
00000220: ef99 103d 64f0 653c dea5 473d 0370 8c3c
00000230: 6e5b 6c3d d605 be3c 702b daba 7ad1 fc3c
00000240: 65d6 fd3a f99a 233d 6206 4c3d 9241 fcbb
00000250: 4331 d4bc 04ba 783d 60b5 873d 7773 9dbc
00000260: 5cbe 403d 6de5 d8bc 102a 2e3d 1504 373d
00000270: a34f 673d 4215 773c 03db 663d a3de b9bb
00000280: f143 b53c 815b 23bd 8bba 0c3c 7a78 033d
00000290: 333d 543d 69c7 403d 8cf1 1c3d 93b1 f13c
000002a0: 29c9 41bc 34c3 2f3d a706 b0bc 82f7 5b39
000002b0: b5e5 09bd 4f53 493d 3b17 d7bc b264 4a3c
000002c0: c65b 983c d285 2fbd cfe3 a03c c76a 0abd
000002d0: 47e4 713d 550b 1e3b 1bb6 afbc 9f97 1fbd
000002e0: 7a6e 963d 3d7e a2bc 526f 34bc ee06 80bd
000002f0: bc6f a0ba ada6 e73c d4cf c6bc 053c 3dbd
00000300: ed5b b8ba 34b3 8abd f517 67bd 2084 a2bd
00000310: bd29 34bd ae1d c7bd 4b51 55bd 4b97 d23a
00000320: fbb1 e1bc 6bcc fdbc 10c2 dbbc e477 9bbc
00000330: b0eb 913d ef13 413d 8ba1 20bc 5c12 ad3d
00000340: 1f6c 56bb 15ef 21bc 0524 4b3c f59f 173d
00000350: d950 783c 5385 ee3b 6428 a23d f72f 023c
00000360: 1a6a 6b3d adc5 543d 1714 92bc fe16 73bb
00000370: 077f 9d3d da3b 533d 4f07 20bb c832 abbb
00000380: c627 893c 0b11 a13d 5d67 113d 6928 0cbc
00000390: 1fb7 893d eab6 82bc 0545 693d da56 9abb
000003a0: c7ff b3bb 8618 183d e496 893d 3981 8e3d
000003b0: bef8 bdbb 7fde 9e3c 611b 0b3c 9293 153c
000003c0: 664c 913d 9d0c 35bb ce3e 883c fe00 afbc
000003d0: 780f 7dbc d5da 3ebc a197 473d 6423 533c
000003e0: 1ff8 90b9 3b0c 123d ed45 14bd d9f7 253d
000003f0: dfbe 81bc de8c 0f3d 2204 5c3c aabb a53c
-0.07199222 -0.0017568449 -0.014770248 -0.091394454 -0.034583826 0.020631498 -0.03077998 0.008083548
-0.06691145 -0.01960978 -0.036154345 -0.034125995 -0.0684711 -0.061930344 -0.03788557 -0.025542635
-0.029623728 -0.032269917 -0.075896226 -0.029357571 -0.06505532 -0.020757062 -0.073919214 -0.08038445
-0.01217578 -0.041295197 -0.07979499 -0.05542784 -0.06832747 0.0027761601 -0.057333797 -0.09174287
-0.03125413 0.0033452946 -0.07109959 -0.0042349445 -0.094496265 -0.038426135 -0.02920885 -0.10630279
-0.06288973 0.0050638085 0.0036989604 -0.053195424 -0.06794829 0.006478238 -0.024227118 -0.07274784
-0.006709365 0.0054389876 0.0036676442 -0.09810121 -0.06602095 -0.10269078 -0.09548249 -0.07168821
-0.090638064 -0.10525679 -0.056917444 -0.030884067 -0.00045834936 -0.07233336 -0.09049623 -0.01047252
-0.09214201 -0.07492732 -0.060218908 -0.008330146 -0.03610918 -0.09541998 -0.016877258 -0.0646792
-0.015598326 -0.055616543 -0.07479973 -0.023197906 -0.016251381 -0.07037802 -0.029450163 -0.04436001
-0.09169365 -0.022595733 -0.033955224 -0.052983243 -0.09060164 -0.028888665 -0.03367048 -0.034527026
-0.056371108 0.0018136629 -0.06569913 -0.050452128 -0.07305205 -0.049378593 -0.10386433 -0.1010468
-0.010004188 -0.013273418 -0.034196164 -0.094134964 -0.020933103 -0.0980068 -0.08950402 -0.02360498
0.05080106 0.016705044 0.046269376 0.054465093 0.0018495314 1.8483186e-05 0.035090886 -0.012998816
-0.018689262 0.063269645 0.05023 -0.0021046707 -0.015703455 -0.021245228 -0.00062223413 0.023801722
0.015704596 0.04033824 0.01059818 -0.013830859 0.010917871 -0.026865369 -0.009560042 -0.009286728
0.0649429 0.016066099 -0.020816606 0.0016814407 0.046580672 -0.01572425 0.03763325 0.005280459
0.035303053 0.014034364 0.048742168 0.017143255 0.05770438 0.023196142 -0.0016645025 0.030861605
0.0019366263 0.039942715 0.049810775 -0.0076982463 -0.025902396 0.060724273 0.066263914 -0.019220097
0.04705654 -0.026476586 0.042520583 0.044681627 0.056472432 0.015080752 0.05636121 -0.0056722923
0.022127124 -0.039882187 0.008589397 0.032097317 0.051816177 0.047065172 0.038316295 0.02950362
-0.0118277455 0.04291077 -0.021487547 0.00020977671 -0.03366633 0.049151715 -0.026256194 0.012353109
0.018598448 -0.04285223 0.019639878 -0.033793237 0.059055593 0.002411564 -0.02144914 -0.038962957
0.073452905 -0.019835586 -0.011012869 -0.06251322 -0.0012240331 0.02827772 -0.024269022 -0.046199817
-0.0014065482 -0.067724615 -0.05641933 -0.07935357 -0.043985117 -0.09722458 -0.05207948 0.0016066817
-0.027550688 -0.030981263 -0.026825935 -0.018978067 0.07125032 0.04713815 -0.00980414 0.084507674
-0.0032718254 -0.009883662 0.012398724 0.03701778 0.015155994 0.007279077 0.0791786 0.007946006
0.057474233 0.05194633 -0.017831845 -0.0037092562 0.07690244 0.05157075 -0.0024418419 -0.0052245595
0.016742598 0.07864579 0.035498966 -0.008554556 0.06724381 -0.01595636 0.056950588 -0.0047100605
-0.0054931375 0.037132762 0.06718233 0.06958241 -0.0057974746 0.019393204 0.008490414 0.009129422
0.0709465 -0.0027625926 0.01663151 -0.021362778 -0.015445583 -0.011648853 0.04872859 0.012886856
-0.00027650685 0.035656195 -0.0361995 0.04051957 -0.015838085 0.03504645 0.01342872 0.020231087

l1.bias f4 [100]
00000000: 8f93 b2bd 5093 abbf 2fc6 00c0 630a 19be
00000010: 69af c2bf e7c9 d9c0 63a4 c7c0 684f 2dbe
00000020: cfbb 2bc0 3faa b8c0 bc53 87bd 8d4b 08c1
00000030: c1cc b0bf 0bcc f8bd 3546 8dbe b1f3 15be
00000040: 991f 64be 8927 dfbd 65c4 18c1 2adb b3c0
00000050: 9b71 04c0 2b57 43be a968 65c0 685f 02bf
00000060: 93bf 55c0 f62c 5340 c4ba 16be 6539 bfc0
00000070: f0e2 18be f4c2 14c0 690b 93bf 9bae b0bd
00000080: c06f bcbf d675 4cc0 77a7 033f 7fce 69be
00000090: 9943 1dc0 3196 c4bd 5fd9 42be 87f9 483f
000000a0: 0ee3 2cbf 19ab aebd af76 a3c0 5ea5 40be
000000b0: 1d51 98c0 f787 84c0 7e30 60c0 9946 00be
000000c0: c546 59be 64ab a0c0 f980 2dc0 7b4d 72c0
000000d0: cda2 96c0 cfa5 fdbc 6b07 4bbb 0f73 02be
000000e0: 00a2 e6c0 84df bfbd 41db aebd edda 8640
000000f0: 4ab6 a0c0 0590 12bf d5d1 cabf 6700 9bbe
00000100: 4a0c 29c1 0016 dac0 b0d8 71be 4170 06bf
00000110: d209 66be 00da 28c2 f9ca 09be 8aed 9cc0
00000120: f6ad a5c0 a3be b5bf 5f1b 3ec0 8b48 7dbe
00000130: d6e3 afbd eab8 7ebe 3a4c 1dbe 4a1a cbbd
00000140: 840d d6c0 7424 4ebe f246 a6be 5ba4 8cc0
00000150: b4f7 16bd a64b 06be 5ca2 70be 9924 4bbf
00000160: 9de5 c0c0 14f8 48be 1658 8ac0 94a1 b7be
00000170: 755a 98be c627 a9c0 6852 4840 6463 49bc
00000180: ef73 31c0 ab83 27be 989a 03be 7434 29c0
-0.08719551 -1.3404331 -2.0120962 -0.14945368 -1.5209781 -6.8058963 -6.2388167 -0.16924822
-2.683338 -5.770782 -0.06607768 -8.518445 -1.3812486 -0.12148293 -0.27592626 -0.14643742
-0.22277679 -0.108962126 -9.547948 -5.6205034 -2.069434 -0.1907622 -3.584513 -0.5092683
-3.3398178 3.2996192 -0.14719683 -5.975756 -0.1493032 -2.324399 -1.1487857 -0.08627053
-1.4721603 -3.1946921 0.51427406 -0.22832678 -2.4572508 -0.09598959 -0.19028233 0.7850575
-0.6753396 -0.08528728 -5.1082377 -0.18813083 -4.7599015 -4.1415973 -3.5029597 -0.12526931
-0.21218403 -5.0209217 -2.7109969 -3.785979 -4.707373 -0.030962853 -0.0030979763 -0.12739204
-7.2072754 -0.09368804 -0.08537913 4.2142243 -5.022252 -0.57251006 -1.5845286 -0.30273744
-10.5655 -6.8151855 -0.23617816 -0.52515036 -0.22464684 -42.21289 -0.13456334 -4.9039965
-5.1774855 -1.4198803 -2.9704206 -0.24734704 -0.08588378 -0.24875227 -0.1536111 -0.099171236
-6.68915 -0.20131093 -0.32476002 -4.395063 -0.03685732 -0.13114795 -0.23499435 -0.7935272
-6.028029 -0.19625884 -4.3232527 -0.35865462 -0.29756513 -5.286105 3.1300297 -0.012291763
-2.772701 -0.16358821 -0.12851942 -2.6438265

l2.weight f4 [100, 100]
00000000: a200 e0bd b214 4a3e 6aa5 8bc0 e346 30bd
00000010: 6e12 41c0 6e6e 123f 8803 b13f cab0 4ebe
00000020: b2d4 a2bf 69de a3bf 5c1b f43d ff71 16c0
00000030: 5ebe 74c0 3266 84bc 095c 1c3b 63a6 173e
00000040: c73c 87bd de8d 313d 4d4b 7c40 59a0 6a3e
00000050: 469c a73f 77f7 5fbd 917b 223f 6335 e3be
00000060: dc98 033f b596 00c0 46ca 8e40 e10f d53f
00000070: a400 593c eada 1f40 48fb c63f bb3d c33d
00000080: 680c 633f 0247 183f 35aa babe d473 093c
00000090: 339b a3be 3d87 ed3c f03d d7bc 920a 1fc0
000000a0: 20a6 923c ef1f 483d 20cf 08c0 30a9 d53b
000000b0: e4d6 1ebf 6f30 3abf 534d 56bf bb25 a4bd
000000c0: 1e1b 39bd eacb c23e e9ce 0ac0 9099 1bc0
000000d0: 8734 6140 6798 e03d 583f 54bb f2e8 643c
000000e0: c3da 53c0 019a 03bb 3ca1 96bb 0020 86c0
000000f0: 958a 33c0 98d3 ddbd 22fa 7a40 05e0 c7bd
00000100: eb41 873f 8d7c c5be f79e fbbd 6aff 52c0
00000110: 67e2 21bd 719a 883e f51a c23d dd64 b7be
00000120: c688 2240 5ff5 e93d 10ba b03f 7287 9e3d
00000130: 0ef9 58bd 7c83 32bd facf 993d c073 793d
00000140: 98a9 063e 7bfe 5c40 36d9 ca3c bb78 88c0
00000150: 9b12 bdbd b663 b4bc 5d0f 613d 634f ab3f
00000160: 66d5 2ac0 4e31 0ebd 73a4 24c0 ec52 87c0
00000170: 43a7 353d 41b9 3d40 c53d 5d3d c1e0 4d3c
00000180: 90b4 a1bf 97e9 513d ea71 e53c 7663 ca3e
00000190: b166 adbc 137c 8e3f 12bb 25c0 0295 743d
000001a0: 3143 9dbe 6ba5 d5be c43b 3cc0 45c1 97bc
000001b0: dd94 903e 4d04 2fc0 9d6e 96bd e360 91bf
000001c0: 557d 93be fdbc 9a3d 3ce7 8abd f904 21bd
000001d0: 9a1a 7cbd 6d8d 863d 14d2 febf 0b77 62bd
000001e0: a46f 1cc0 0f58 b1bd 63ec bd3f 026b 1a3e
000001f0: 7a49 273e 2e17 3a3e 8896 f4c0 01f0 c2bf
00000200: 3f56 e5bd e3c6 6fc0 3932 80c0 b80a 0dbd
00000210: 314c 45c0 3e6c 303f 2e5d 0c3f da25 5b3d
00000220: f5d4 f5be 24a8 a3bb 653d f6bb f188 6d3f
00000230: a5cf 3c3d 5d13 1abc 652a 0cc0 9475 283c
00000240: d263 a93e e3c8 6ebf aaba d5bc e556 a9bc
00000250: 2b09 a5bd bb34 a7bf 5361 9fbf 1089 333f
00000260: ac29 96be 909b 53bd f83c 1ebd 4098 82bd
00000270: 4ad1 bcbf e210 8fbd f16e 26bd 383c 19bf
00000280: 5e14 b9bf 8846 6b3c dad3 713e 7e6a 90bd
00000290: 8346 59bf 0fea d43e e8f1 b33d 81e6 c23c
000002a0: 2d39 45bd c732 8fbe 064f dc3d 3f93 2ec0
000002b0: 6ca8 84be 7d29 3c3f 0f97 e63f 06ce 11bd
000002c0: 9061 033b 5626 edbd 8d75 1cbe 0360 e13c
000002d0: 2aa3 42bf 45af 99c0 a7bc 29bd 4d20 34bf
000002e0: 2552 a73d 1392 acbd 4514 e9bc 1cfe 9abf
000002f0: d086 29be d886 02be 6148 7f3f 99bc ebbe
00000300: 8330 a3bd 89e5 62c0 21c7 30c0 d7e6 c0bd
00000310: e4af 7dbf a189 22bd 8548 55bd 9994 9d3e
00000320: a016 173d 933a 2bbf 2cd2 8dbe 9ba7 3f3d
00000330: d365 67c0 6409 0c40 ea66 14c0 0bb4 83bd
00000340: 1bf9 cf3e 16db b1c0 a3f0 1abd ae99 9abf
00000350: e180 b6c0 5c60 65bd 7dde 9bbc 7ce6 ea3d
00000360: 7ea7 dabd e419 193c 88e2 f9bf a539 8bbe
00000370: b615 a1bf 00d1 44bd c4c9 3b40 059d 743d
00000380: acdc 963e 4e72 8ac0 e0ad b33f a484 aebd
00000390: 4cba b4ba a54d 303f 2f5e 16bf 8562 443d
000003a0: 4c7a d13e 9f1e 9a3f 3ead 2b3f 89dd 1ebb
000003b0: c348 5dbf 9f92 193d c235 c5bd 4d3a 24bf
000003c0: 0e0e 1d3e 20df 023a 7116 8a3f a1fb e5bc
000003d0: e517 6a3e 2ff4 6cc0 9075 9ebe 3492 71bc
000003e0: 84e4 00bd 5a6c 0d3f 3dc8 04c0 2e89 afbe
000003f0: 8a27 3140 3826 5b3e 6098 2cbd 8ac0 ddbd
-0.10937621 0.19734457 -4.363942 -0.043036353 -3.0167499 0.5719975 1.3829203 -0.20184627
-1.272116 -1.2802249 0.11919281 -2.3507078 -3.824119 -0.016162012 0.0023858568 0.14809565
-0.06603389 0.043348186 3.942096 0.2291273 1.3094566 -0.05467936 0.634698 -0.44376668
0.5140512 -2.0091984 4.4621916 1.6645471 0.013244782 2.4977365 1.5545435 0.095332585
0.88690805 0.5948335 -0.36457983 0.008389432 -0.31954345 0.02899515 -0.026274651 -2.4850202
0.01790148 0.04885858 -2.137642 0.006520413 -0.6204665 -0.72730154 -0.8371174 -0.08015009
-0.045191877 0.380462 -2.1688788 -2.4312477 3.518831 0.109665684 -0.0032386389 0.013971554
-3.3102272 -0.0020080807 -0.0045968574 -4.1914062 -2.8053334 -0.10831374 3.921517 -0.09759525
1.0566992 -0.38571587 -0.122861795 -3.2968392 -0.039522555 0.2668033 0.09477798 -0.3581914
2.539598 0.11423754 1.3806782 0.07740678 -0.052971892 -0.043582425 0.075103715 0.060901403
0.13150632 3.4530323 0.024761777 -4.2647376 -0.09232064 -0.022020202 0.054946292 1.3383602
-2.6692748 -0.03471499 -2.5725372 -4.2288723 0.044348966 2.964432 0.054013986 0.012565793
-1.2633228 0.05124816 0.02800842 0.39529008 -0.021167131 1.1131614 -2.5895429 0.059712417
-0.30715325 -0.41727766 -2.9411478 -0.018524775 0.28238574 -2.7346375 -0.073453166 -1.1357692
-0.28806558 0.07555578 -0.06782386 -0.039311383 -0.061548807 0.065699436 -1.9907861 -0.05528931
-2.444314 -0.08659374 1.4837765 0.15079883 0.16336623 0.18172905 -7.6433754 -1.5229493
-0.11198091 -3.746514 -4.0061307 -0.03443405 -3.0827754 0.68915164 0.5482968 0.053502895
-0.48014036 -0.004994409 -0.007514643 0.9278708 0.046096463 -0.009404031 -2.1900876 0.010281939
0.3308397 -0.9327528 -0.026089985 -0.020671317 -0.08058389 -1.3062967 -1.2451576 0.70131016
-0.29328668 -0.051662028 -0.038632363 -0.06376696 -1.475137 -0.06985642 -0.040633146 -0.5985751
-1.445934 0.014360078 0.23615971 -0.07051562 -0.8487322 0.41584823 0.08786374 0.023791553
-0.04815023 -0.27968428 0.1075726 -2.7277372 -0.25909746 0.73500806 1.801485 -0.03559687
0.0020047165 -0.115795776 -0.15279217 0.027511602 -0.7603022 -4.802645 -0.04143968 -0.7036179
0.08169965 -0.08426299 -0.028452048 -1.2108798 -0.16555333 -0.12746751 0.99719816 -0.46042326
-0.07968237 -3.5452597 -2.7621539 -0.09419029 -0.9909651 -0.039682034 -0.052071113 0.30777434
0.03688681 -0.6688625 -0.2769941 0.0467907 -3.6155899 2.1880732 -2.3187814 -0.06430825
0.4061974 -5.557994 -0.037827145 -1.2078149 -5.7032323 -0.0560001 -0.01902699 0.11469743
-0.10676478 0.009344552 -1.9522257 -0.27192417 -1.2584751 -0.04805088 2.9341898 0.059720058
0.29465234 -4.326453 1.4037437 -0.08521393 -0.0013788431 0.68868476 -0.5873746 0.047945518
0.40913618 1.2040595 0.6706122 -0.0024240932 -0.8643915 0.037493344 -0.09629394 -0.6415146
0.15337393 0.00049923547 1.0788099 -0.028074088 0.22860678 -3.7024038 -0.30949068 -0.01474433
-0.03146793 0.55243456 -2.0747216 -0.34284347 2.7680383 0.21401298 -0.042137504 -0.108277395

l2.bias f4 [100]
00000000: 5dee 5541 1876 2b42 fed7 a640 04b8 12c2
00000010: 621b d440 2374 c5c1 21b0 45c0 807f 23c2
00000020: cffe 9fc1 0b64 2c40 937e 38c1 50f5 63bf
00000030: c765 2941 e051 bdc1 d214 30c2 e53f 2740
00000040: 5664 9841 e89c 0541 724f f441 c6c7 ccba
00000050: 9ea4 133d 237a f9c1 cbec 863f 365b 9941
00000060: 85be 95c1 d3d2 0241 b9a2 7240 8306 0e41
00000070: a149 c5c0 d5da b7c1 e63a 2a41 539f 9dc1
00000080: eb44 54c1 7a6f 06bf 37f2 f6c1 466b 4041
00000090: e48b d5c0 8455 19c2 bc71 84c1 0a14 58c1
000000a0: 27e2 ab40 e88e 1bc0 8725 c1c1 a5aa 50c2
000000b0: 7061 04c1 c7bb 14c1 19be 15c2 8ab7 2fc1
000000c0: a870 c8c0 92f2 9a3f 03c3 18c2 254b e840
000000d0: e0e5 19c2 815b 0342 09a9 8f3e ac06 d641
000000e0: 4ca9 7cc1 44c1 5941 b4c0 8ac1 4f4e dbc1
000000f0: c612 a5be fab0 1c41 af07 3bc2 2ac2 233e
00000100: 32ef 3dc1 8601 3e40 00f8 8341 ab70 d240
00000110: cabf 35c1 a82a 77c2 2508 0d41 af5d a340
00000120: 84d6 10c2 722a 7441 463f 81c1 99f8 9a41
00000130: c081 b5c0 abb6 3d41 8402 e8be c5bf b6c0
00000140: 517d 36c1 9a24 c941 f2e0 eec0 7e7b 47bf
00000150: 56ce b440 257f 07c2 fad2 3340 632f dac1
00000160: 6e23 d03e a19f 5ac2 1cb5 43c1 eeb6 39bf
00000170: 08e3 8140 ff44 98c1 6e2c b33f 540b d640
00000180: 877f 0cc1 d171 16bf 7673 9741 fc2a 4e41
13.370694 42.865326 5.213866 -36.679703 6.6283426 -24.681707 -3.088875 -40.87451
-19.999418 2.6936061 -11.530902 -0.8904619 10.587348 -23.664978 -44.020332 2.6132748
19.048992 8.350807 30.538792 -0.0015623502 0.036045663 -31.184637 1.0541013 19.169537
-18.718027 8.176471 3.7911818 8.87659 -6.165238 -22.981852 10.6393795 -19.702795
-13.266826 -0.5251385 -30.868269 12.02619 -6.6733265 -38.33351 -16.555534 -13.504892
5.3713565 -2.4305973 -24.143324 -52.166645 -8.273788 -9.295844 -37.435642 -10.982309
-6.263752 1.2105277 -38.19044 7.259173 -38.474487 32.83936 0.2805865 26.753258
-15.791332 13.609684 -17.344093 -27.413237 -0.32240885 9.793207 -46.757504 0.15992036
-11.870897 2.968843 16.496094 6.5762534 -11.3593235 -61.791656 8.814488 5.105186
-36.209488 15.260363 -16.155895 19.371386 -5.6720886 11.857097 -0.4531442 -5.7109094
-11.405595 25.142872 -7.464959 -0.7792281 5.6501875 -33.874165 2.809752 -27.273138
0.4065203 -54.655888 -12.231716 -0.72544754 4.058964 -19.03369 1.3997934 6.688883
-8.781135 -0.5876742 18.931377 12.885494

l3.weight f4 [2, 100]
00000000: 85c2 29bf 4bb2 0cc0 aea5 d1bd 5616 9f3f
00000010: 5d9e 553f 686e 3940 3e72 f83c eb90 44bb
00000020: 4d5a 0d3f 95ed 0a3d 61d3 61be da07 613d
00000030: ba07 94c0 b81b 9d40 41f6 c33e 59c6 29c0
00000040: 4696 06c1 2f83 303e aa50 813f 3972 073e
00000050: 2d5e c23e a277 2f3f ca3f 0ebf 2cb4 4abf
00000060: 5227 ca3f dd53 1bbf b7c7 aebf 9d16 b8c0
00000070: 53a2 563f c8cb a73e 1b7c 6d3e 5a99 403f
00000080: 6bbd 903e 3586 b43e 81e8 9a3f d002 0d3d
00000090: 7741 babd 0307 4b3f 1df9 e13e 3e74 003f
000000a0: 8f2e 253f af33 403e e6a9 c73f fe01 1940
000000b0: 5425 5b3e 8ff4 a33e 0ff4 0740 fd8a 913f
000000c0: be33 e0be bfa1 1d3c 965a 0c40 3563 a6bf
000000d0: 9df5 9b3d f71c 913f da9f e4bd df06 7c3e
000000e0: 6a40 c13f 60e5 703e 7072 2840 e4a4 1a40
000000f0: 392d 143d dac6 ebbf 9896 d4bf bf84 e13d
00000100: e201 943f 35bb bfbe 5643 d03e 97a2 51c0
00000110: ad76 49be cf43 ae40 e526 bf3e 4b82 9abf
00000120: 752f 3b3f 5896 993d 52fa 8e3e cf67 143f
00000130: 3e99 0540 0dcd 13c1 0b42 8d3e 6d8d 2b3e
00000140: cf7c fb3d 5ff4 a23e 6932 3e3e 07cf d23e
00000150: 27bf 9abf 93a5 0c3e 864f f53e cad6 2b40
00000160: 9355 95c0 2bca ff3f 0347 be3e 50f0 563e
00000170: f20a 2e3e f803 8e3f cf23 00bf 7d9b e9be
00000180: 0418 993e 07b7 f43e 87ad 99c0 90ee 18bf
00000190: 66b5 ebbe 4671 19c0 0e47 8dbd 54f0 d53f
000001a0: 5d13 473f 88a8 2440 231b 033b f2ee 0b3e
000001b0: 85b3 4c3f e8e6 c83e 9270 9ebe bf90 31bc
000001c0: 32f4 78c0 be16 8240 eb6a 953e a41b 29c0
000001d0: ce79 f9c0 0f03 d3bd ad16 753f bf8a 9c3d
000001e0: b550 0b3f 9038 233f 9059 e1be 318c 38bf
000001f0: cfe9 e83f adac 1fbf e740 efbf 9f31 cec0
00000200: c6a2 013f 9555 853e 2c8a 0a3f c5bd 143f
00000210: 9091 dd3e 67d8 0c3e b20d 953f 63fe 2e3e
00000220: 7848 b33d 4131 873f e90b 073f 2de7 0b3f
00000230: 0077 513f 0dc9 953e d35f cc3f f75b 0240
00000240: dda5 173e 990b 203e 02eb f43f 0cbb 533f
00000250: cb38 f1be 4800 3cbd 1ae3 f93f bc55 b2bf
00000260: 4098 f83d ec66 893f 8357 8d3d bd32 063d
00000270: 2048 d83f 4fb9 433e 9a62 2240 5891 d93f
00000280: a254 363d d591 cbbf 2ac0 e3bf 56d3 0f3e
00000290: 562e 983f 7fb0 00bc 1dce f63e 623c 5bc0
000002a0: f29e 4dbe b408 a840 88c1 bb3e 9e08 d6bf
000002b0: db25 2b3f b0a7 4f3e 7606 913e 2a5d 0f3f
000002c0: b992 0140 de22 10c1 5143 943e b590 523e
000002d0: 51fb 7f3e 573c e63e b277 e03e be19 f23e
000002e0: 3068 93bf 558b 073e 375c af3e 1ad2 4740
000002f0: 8719 a5c0 6f43 0b40 091a 9c3e 9960 d03e
00000300: 23b7 b6bc f204 8c3f 0873 3dbf e942 ccbe
00000310: c406 863e 9d2d e23e bcd3 91c0 eddf 22bf
-0.6631244 -2.1983821 -0.10236679 1.2428691 0.8344477 2.8973637 0.030327912 -0.0029993604
0.55215913 0.033917982 -0.22053291 0.05493913 -4.625943 4.9096336 0.38273814 -2.6527312
-8.411688 0.17237543 1.0102742 0.13227166 0.37962475 0.6854192 -0.55566084 -0.7918117
1.579325 -0.6067484 -1.3654698 -5.7527604 0.8384144 0.3277266 0.23191874 0.75233996
0.28269514 0.35258642 1.2102205 0.03442651 -0.09094518 0.79307574 0.4413537 0.5017737
0.6452417 0.18769716 1.5598724 2.3907466 0.21400958 0.3202252 2.1242712 1.1370541
-0.43789476 0.009621083 2.193029 -1.2999026 0.076152064 1.1336964 -0.11163302 0.24611996
1.5097783 0.23525 2.6319847 2.4163141 0.03617594 -1.842006 -1.6608458 0.110116474
1.1563075 -0.37447515 0.40676373 -3.2755487 -0.19674177 5.4457774 0.37334362 -1.2071012
0.7311929 0.07499379 0.27925354 0.579709 2.0874782 -9.237561 0.2758945 0.16753168
0.12279665 0.31827065 0.18573917 0.41173574 -1.2089585 0.13735037 0.47912234 2.6849847
-4.666696 1.9983572 0.37163553 0.2099011 0.16996363 1.1094961 -0.5005464 -0.4562644
0.29901135 0.4779589 -4.8024325 -0.5973902 -0.46036834 -2.3975387 -0.06898318 1.6713967
0.7776392 2.5727863 0.0020005188 0.13665369 0.79961425 0.39238667 -0.3094526 -0.010837733
-3.8899045 4.065276 0.29183134 -2.642312 -7.7961187 -0.10303318 0.95737725 0.07643651
0.54420024 0.6375818 -0.44013643 -0.72088915 1.8196353 -0.6237286 -1.8691682 -6.4435573
0.50639 0.26041856 0.54117084 0.58102065 0.43275118 0.13754426 1.1644804 0.17089228
0.08754057 1.0561906 0.5275255 0.5464962 0.81822205 0.29254952 1.5966743 2.036863
0.14809366 0.15629424 1.9134219 0.82707286 -0.47113642 -0.045898706 1.9522431 -1.3932414
0.121384144 1.0734534 0.06901457 0.03276323 1.6897011 0.19113658 2.5372682 1.699748
0.044514306 -1.590388 -1.7793019 0.14045462 1.1889141 -0.00785458 0.48204127 -3.4255605
-0.20080164 5.2510624 0.3667109 -1.672138 0.6685464 0.20278811 0.28325242 0.5600153
2.0245802 -9.0085125 0.28957608 0.20563014 0.24998213 0.4496791 0.4384132 0.47285265
-1.151617 0.13236745 0.34250042 3.1221986 -5.159366 2.1759908 0.30488613 0.40698698
-0.022304123 1.0939009 -0.7400365 -0.39894798 0.26177037 0.44175425 -4.5570965 -0.63622934

l3.bias f4 [2]
00000000: f5ca b741 2f67 0541
22.9741 8.337691
