Main - Proposed Deep RL Methods Implementation/Testing Mode - The Deep Augmented Pseudo Epsilon-Constraint Q-Learning/DeepLearningModel/CurrentModel.pt (torch, 206079 bytes, 6 tensors)

l1.weight f4 [100, 406]
-0.47942972 0.0491338 -0.0015744225 -0.101352766 -0.28076342 -0.44391656 -0.17053896 -0.18944566
-0.1938001 -0.14112379 -0.15822066 -0.16487779 -0.22967286 -0.21486086 -0.20478489 -0.18837872
-0.21877821 -0.2083249 -0.1681137 -0.22493672 -0.1677047 -0.22025791 -0.2420401 -0.23960485
-0.17977166 -0.24944122 -0.20243898 -0.24889193 -0.24217321 -0.2575033 -0.23437914 -0.17999442
-0.22921352 -0.18000813 -0.1789142 -0.22174226 -0.22139001 -0.24348618 -0.25790855 -0.23262833
-0.26987603 -0.22154674 -0.22155385 -0.2739861 -0.24516818 -0.23350379 -0.24179646 -0.18301815
-0.254153 -0.23255107 -0.26022094 -0.22472998 -0.22612478 -0.24342147 -0.20055829 -0.26473752
-0.24132052 -0.2199637 -0.25402543 -0.19780517 -0.25046363 -0.19364822 -0.26053098 -0.24406411
-0.23692381 -0.26871857 -0.2162427 -0.27433103 -0.28983715 -0.20947681 -0.20744301 -0.2503817
-0.27513772 -0.2262266 -0.23926938 -0.30495545 -0.28264835 -0.26034105 -0.29112467 -0.24567588
-0.2934033 -0.271317 -0.282613 -0.2649242 -0.23803896 -0.25509337 -0.24605504 -0.24498615
-0.29215816 -0.26708376 -0.26954496 -0.24989739 -0.251443 -0.31351158 -0.25685468 -0.32540348
-0.3205122 -0.35040554 -0.27295226 -0.3174347 -0.25515702 -0.3408909 -0.3278034 -0.322861
-0.34506026 -0.26458117 -0.18839408 -0.17665435 -0.24442811 -0.21120964 -0.2731295 -0.2841609
-0.28273594 -0.27716985 -0.3481728 -0.31791696 -0.27001923 -0.36418286 -0.3637853 -0.30390194
-0.30721703 -0.37534013 -0.36524668 -0.29606667 -0.3472558 -0.2944193 -0.31238118 -0.35152927
-0.2798083 -0.36085615 -0.30798736 -0.36389992 -0.37539014 -0.37954482 -0.38800374 -0.37782827
-0.41606978 -0.40872023 -0.3937784 -0.33358023 -0.33640382 -0.39541304 -0.4091675 -0.40598157
-0.38320154 -0.3954738 -0.34760195 -0.367445 -0.38334724 -0.39377716 -0.36653855 -0.37521923
-0.3149146 -0.32348782 -0.35331813 -0.39583123 -0.34746104 -0.35910165 -0.37371618 -0.34207624
-0.3527246 -0.36518216 -0.37680972 -0.370699 -0.3430692 -0.36335135 -0.4220478 -0.43049037
-0.41371655 -0.4004416 -0.40948546 -0.44283283 -0.42693514 -0.40471637 -0.40398788 -0.45995975
-0.43470252 -0.3899135 -0.41254222 -0.41414422 -0.45318806 -0.40491176 -0.38801384 -0.4234696
-0.47165883 -0.4260946 -0.44992268 -0.43845433 -0.39950198 -0.48425078 -0.44463837 -0.47003412
-0.50592446 -0.41190976 -0.43451345 -0.50038934 -0.42364436 -0.48091567 -0.5065166 -0.41924578
-0.39070803 -0.4231922 -0.43472272 -0.39081794 -0.43711954 -0.4878472 0.034399617 0.02116208
-0.006252651 0.03154946 0.029781647 0.057795558 0.021933682 0.037910033 -0.043442048 0.032358423
-0.02642361 0.027501622 0.0004433179 0.019767355 -0.023048183 -0.032105662 0.0056206873 -0.03138349
-0.003778395 0.0146083385 -0.036686625 0.013695397 0.0042064884 0.0203079 -0.035264153 -0.032979082
-0.0026017781 -0.046593513 0.013705211 -0.017644357 -0.025009608 -0.07182395 -0.08292584 -0.092276946
-0.014219709 -0.06554274 -0.08316142 -0.04514972 -0.08603756 -0.034601066 -0.0144753605 -0.031761408
-0.087408096 -0.09128907 -0.025989147 -0.09561483 -0.06345406 -0.012361216 -0.087103434 -0.093120314
00000000: d077 f5be 8640 493d da5c ceba 0a92 cfbd
00000010: 39c0 8fbe 0849 e3be c4a1 2ebe 0bfe 41be
00000020: 8973 46be c182 10be 9904 22be b9d5 28be
00000030: 5d2f 6bbe 7c04 5cbe 21b3 51be 5ae6 40be
00000040: 6507 60be 1f53 55be ff25 2cbe d055 66be
00000050: c8ba 2bbe 4a8b 61be 5cd9 77be f95a 75be
00000060: 1016 38be 856d 7fbe 2a4c 4fbe 87dd 7ebe
00000070: 41fc 77be 79d7 83be 1601 70be 7550 38be
00000080: f3b6 6abe 0d54 38be 4935 37be 6710 63be
00000090: 10b4 62be 7154 79be 970c 84be 1f36 6ebe
000000a0: 312d 8abe 26dd 62be 03df 62be e847 8cbe
000000b0: 5e0d 7bbe 9e1b 6fbe 7e99 77be 1c69 3bbe
000000c0: 5820 82be de21 6ebe ae3b 85be 9e1f 66be
000000d0: 418d 67be 7a43 79be 275f 4dbe ad8b 87be
000000e0: ba1c 77be 2a3e 61be 9f0f 82be 708d 4abe
000000f0: c53c 80be b84b 46be 5164 85be f1eb 79be
00000100: 289c 72be 7b95 89be ba6e 5dbe 1e75 8cbe
00000110: 8965 94be 1781 56be f16b 54be 0832 80be
00000120: dade 8cbe f2a7 67be 0803 75be 1f23 9cbe
00000130: 49b7 90be 6c4b 85be 4b0e 95be 7592 7bbe
00000140: f538 96be 10ea 8abe a7b2 90be 25a4 87be
00000150: 7cc0 73be 999b 82be daf5 7bbe a6dd 7abe
00000160: c195 95be 34bf 88be cc01 8abe 1ae5 7fbe
00000170: 23bd 80be 9784 a0be 7582 83be 499b a6be
00000180: 2d1a a4be 5b68 b3be 66c0 8bbe cd86 a2be
00000190: f1a3 82be 4189 aebe d9d5 a7be 094e a5be
000001a0: bdab b0be 2f77 87be 61ea 40be e1e4 34be
000001b0: 5d4b 7abe 5747 58be a1d7 8bbe 8a7d 91be
000001c0: c4c2 90be 35e9 8dbe b543 b2be 03c6 a2be
000001d0: f63f 8abe 2d76 babe 1142 babe 0999 9bbe
000001e0: 8d4b 9dbe 952c c0be 9d01 bbbe 0d96 97be
000001f0: 83cb b1be 20be 96be 6df0 9fbe a5fb b3be
00000200: 0943 8fbe 23c2 b8be 85b0 9dbe 1751 babe
00000210: 2333 c0be b353 c2be 6da8 c6be b572 c1be
00000220: 1907 d5be c743 d1be 539d c9be 07cb aabe
00000230: 1f3d acbe 9473 cabe 677e d1be d1dc cfbe
00000240: fe32 c4be 8b7b cabe e2f8 b1be c021 bcbe
00000250: 1746 c4be 299d c9be f1aa bbbe bc1c c0be
00000260: 7d3c a1be 32a0 a5be 1de6 b4be 64aa cabe
00000270: 6ae6 b1be 2cdc b7be ba57 bfbe 9e24 afbe
00000280: 5298 b4be 28f9 babe 34ed c0be 42cc bdbe
00000290: c4a6 afbe 3009 babe a616 d8be 3c69 dcbe
000002a0: a8d2 d3be ae06 cdbe 14a8 d1be fcba e2be
000002b0: 3e97 dabe fc36 cfbe 80d7 cebe d87f ebbe
000002c0: 5491 debe bea2 c7be bc38 d3be b60a d4be
000002d0: 4408 e8be 9850 cfbe c0a9 c6be 02d1 d8be
000002e0: 447d f1be 1229 dabe 445c e6be 167d e0be
000002f0: 868b ccbe b8ef f7be a4a7 e3be 50a8 f0be
00000300: 4484 01bf d6e5 d2be 8c78 debe 8419 00bf
00000310: eae7 d8be 943a f6be 12ab 01bf 62a7 d6be
00000320: e20a c8be a6ac d8be fa93 debe 4a19 c8be
00000330: 22ce dfbe 1cc7 f9be 9de6 0c3d 195c ad3c
00000340: 0ae3 ccbb 023a 013d a4f8 f33c 09bb 6c3d
00000350: 44ae b33c 8d47 1b3d 4af0 31bd 448a 043d
00000360: 5476 d8bc 154b e13c 1f6d e839 26ef a13c
00000370: 8bcf bcbc 3a81 03bd be2d b83b f98b 00bd
00000380: f39e 77bb d057 6f3c b744 16bd a962 603c
00000390: 95d6 893b c15c a63c 2571 10bd 1315 07bd
000003a0: 9882 2abb d7d8 3ebd d28b 603c e68a 90bc
000003b0: f3e0 ccbc 6f18 93bd 06d5 a9bd b2fb bcbd
000003c0: c8f9 68bc 463b 86bd 8950 aabd eaee 38bd
000003d0: 7634 b0bd d9b9 0dbd 102a 6dbc 4018 02bd
000003e0: 0403 b3bd c4f5 babd 31e7 d4bc b5d1 c3bd
000003f0: 34f4 81bd b386 4abc 4963 b2bd ddb5 bebd

l1.bias f4 [100]
-0.20437226 -5.93419 -2.199396 -2.2297988 1.7717587 -13.090918 -0.8603465 -3.2804122
-0.27968362 -0.51725876 -0.8824744 0.032037187 -6.5710187 -0.36141723 -0.26360616 -8.723132
-4.819316 -0.8749788 -1.4152118 -1.109706 -0.4370516 -13.899435 -4.7823005 -0.2558606
-0.58176047 -4.4462986 -4.1225033 -10.115913 -0.55877817 -0.9206872 -5.488519 -1.3594013
-0.25581232 -2.3868568 -0.50672346 -2.1932325 -0.81325257 -1.8006897 1.4408855 -4.9280834
-1.0438818 -2.3058355 -8.402439 -0.29377496 -0.6126558 -7.004713 -7.873924 -1.7161969
-3.343455 -5.39816 -1.0572042 -14.365243 -32.40388 -0.800726 -2.580298 -12.951717
-6.9341836 -2.6252475 -3.9384854 -0.942094 -0.13112769 -1.7590107 -4.6607404 -3.9207218
-10.85734 -4.205831 -2.058861 -1.1269743 -0.9394506 3.9711359 -0.40793228 -1.4284853
-13.708006 -1.6527761 -0.9116936 -0.6129467 -0.81593716 -5.272291 -2.0687697 -6.020289
-0.84990525 -7.883484 -0.55580425 -1.5786328 -1.4773275 -11.129736 -6.929297 -11.114813
-11.958809 -0.20824555 -0.032236904 -0.4931639 -1.0140427 -2.5685008 -1.2445897 -9.681298
-0.65643996 -8.302271 -2.0473726 -4.2780232
00000000: f646 51be e2e4 bdc0 e7c2 0cc0 06b5 0ec0
00000010: fdc8 e23f 6674 51c1 ab3f 5cbf 46f2 51c0
00000020: b132 8fbe 126b 04bf d8e9 61bf 6d39 033d
00000030: c945 d2c0 ae0b b9be 63f7 86be f391 0bc1
00000040: d637 9ac0 9cfe 5fbf a925 b5bf d90a 8ebf
00000050: 3ac5 dfbe 1664 5ec1 9b08 99c0 2900 83be
00000060: 41ee 14bf 1448 8ec0 8ceb 83c0 c8da 21c1
00000070: 160c 0fbf 28b2 6bbf f3a1 afc0 dd00 aebf
00000080: d5f9 82be 43c2 18c0 a1b8 01bf ec5d 0cc0
00000090: 5231 50bf 007d e6bf f06e b83f dcb2 9dc0
000000a0: eb9d 85bf cf92 13c0 6470 06c1 ac69 96be
000000b0: 03d7 1cbf 9c26 e0c0 2ff7 fbc0 57ac dbbf
000000c0: 2bfb 55c0 babd acc0 7852 87bf 09d8 65c1
000000d0: 939d 01c2 61fc 4cbf 9a23 25c0 3c3a 4fc1
000000e0: d5e4 ddc0 0e04 28c0 2510 7cc0 132d 71bf
000000f0: 5646 06be 4327 e1bf c924 95c0 1bed 7ac0
00000100: aab7 2dc1 2b96 86c0 61c4 03c0 b240 90bf
00000110: d67f 70bf 1727 7e40 80dc d0be 9bd8 b6bf
00000120: fe53 5bc1 2b8e d3bf c064 69bf 13ea 1cbf
00000130: 42e1 50bf 9cb6 a8c0 b966 04c0 35a6 c0c0
00000140: 6493 59bf 8045 fcc0 3049 0ebf a410 cabf
00000150: 1119 bdbf 6613 32c1 cdbc ddc0 46d6 31c1
00000160: 4857 3fc1 523e 55be d80a 04bd fb7f fcbe
00000170: 27cc 81bf 5162 24c0 b74e 9fbf 99e6 1ac1
00000180: 730c 28bf 1ad6 04c1 2708 03c0 91e5 88c0

l2.weight f4 [100, 100]
-0.04892816 -0.41316977 0.29845926 -0.17391093 0.9331504 -0.10401369 -0.014260066 -0.01610899
-0.113557085 -0.08318301 0.0014233034 0.01318377 -3.081315 0.016845895 0.03428651 -1.2404658
-0.560806 -1.3649782 -0.008943841 0.16066049 -0.13152897 -5.8471556 0.11588279 -0.0060642394
-0.02408599 -1.4519924 -0.41408303 -0.8388322 0.06575396 -0.08355911 -0.9229844 1.8034723
-0.11892978 -0.0040429747 0.0039092195 -0.66327906 -0.07499719 -0.16889873 1.7726096 1.1477922
0.30681175 0.7242303 0.28903547 -0.018027164 0.046904285 0.65747964 1.9531189 -0.074060515
1.3701036 1.0487771 -0.10634179 -1.96686 -1.9037033 0.03615831 0.1238388 -5.790795
-0.14505886 0.26977134 -0.651162 -0.22472411 -0.044702116 0.13331373 0.19954482 -0.14945354
-1.9982713 0.9640685 2.5117257 -0.06423365 -1.7255377 0.6103566 -0.07581593 -0.19093943
1.5501611 0.032069806 0.086839475 -0.064416215 0.26940826 0.75650716 0.34594706 0.29340458
-0.02864538 0.05197964 0.04603682 -0.4114498 0.05927048 1.8620985 0.3644868 0.82119066
0.92818135 -0.11034204 0.12753125 0.05694208 -0.035698336 0.4547939 -0.09703435 1.5681555
-0.019275595 -2.2725003 -0.26203975 2.220864 -0.11929135 0.62501305 -0.37208402 -0.12568249
0.7666106 -0.3518516 -0.05818656 -0.13023572 -0.05543153 -0.051619552 0.0697493 -0.12795387
-2.4506447 0.0634524 0.032436326 -0.575638 -1.2474895 0.05444998 -0.0020641095 -0.20353349
0.022351883 0.9748846 0.14929011 -0.08791632 0.044132583 -2.8491344 -0.44232544 -1.043059
0.037555996 -0.06499839 -0.23774698 -0.09445461 -0.010518499 -0.18175231 -0.04832679 -0.8135358
0.26925018 -0.05378335 0.21794708 0.61933196 0.0069148038 0.82254696 -0.64074105 0.010713176
0.023830608 0.6191321 -2.7449856 0.025352582 0.24956058 1.303994 -0.19658658 -1.2701629
0.3103967 0.047016762 0.21823357 -2.429663 -2.7421882 -1.0369805 -0.7027001 -0.12873453
-0.03786182 0.40915075 -0.42803177 -0.50927925 -1.959267 0.7057075 -1.7989142 -0.36440885
-0.23622264 0.21564335 -0.08870495 0.10583653 0.2438532 -0.07599412 0.1514607 -0.0190667
0.068439014 0.78508097 -0.0014315172 0.83074623 0.024769645 0.08819199 -0.035958428 -0.56499976
-0.04980144 -0.20988975 0.96285653 -0.28357852 0.40490764 0.11068736 0.1301121 -0.040995963
0.20024998 -0.41271806 -0.38862154 0.12606183 0.11880859 -0.32385558 -0.22948655 -0.12911709
-0.081385806 -0.48166782 0.05389825 -0.32777938 0.7660203 0.6055207 0.046807725 -0.34947217
-0.10526691 -0.027580675 0.13793826 -0.24961634 -3.025438 0.16586173 -0.04664391 0.0024385306
0.072933204 0.30925873 -0.086742416 -0.15715958 -0.07904907 -2.1444492 -0.89098406 -0.13569365
0.046073224 -0.35192895 -0.32250148 -0.46608198 0.037689734 0.0466588 -0.14540291 0.13196428
0.027678277 -0.01688841 -0.01227298 -0.0944318 0.15838104 0.016087139 0.51136863 0.9717809
0.3950359 0.753396 -0.28789514 0.100745864 -0.03837548 0.19350423 -0.22623861 0.06896259
1.8552065 0.9502447 -0.05102812 -2.2214706 0.2989169 0.04955279 0.089222044 -1.7044252
00000000: e568 48bd fd8a d3be a7cf 983e b515 32be
00000010: f2e2 6e3f 2105 d5bd 0da3 69bc 00f7 83bc
00000020: 9e90 e8bd db5b aabd 238e ba3a bd00 583c
00000030: 4434 45c0 6700 8a3c 0370 0c3d 95c7 9ebf
00000040: fb90 0fbf 9bb7 aebf 3089 12bc 2f84 243e
00000050: 88af 06be e61b bbc0 f553 ed3d 87b6 c6bb
00000060: fb4f c5bc e3da b9bf b102 d4be b5bd 56bf
00000070: 03aa 863d 0a21 abbd b548 6cbf 2ed8 e63f
00000080: 7591 f3bd ee7a 84bb e918 803b a8cc 29bf
00000090: 2098 99bd caf3 2cbe dfe4 e23f dbea 923f
000000a0: 6e16 9d3e 2867 393f 75fc 933e b4ad 93bc
000000b0: b51e 403d 9650 283f cdff f93f 0aad 97bd
000000c0: 8e5f af3f 543e 863f b9c9 d9bd 12c2 fbbf
000000d0: 8dac f3bf bc1a 143d 329f fd3d 314e b9c0
000000e0: 4f8a 14be 781f 8a3e 8eb2 26bf 141e 66be
000000f0: 9119 37bd 6583 083e 7a55 4c3e 590a 19be
00000100: 5bc7 ffbf 31cd 763f 1dc0 2040 ef8c 83bd
00000110: 6bde dcbf 5540 1c3f 6245 9bbd a085 43be
00000120: ae6b c63f a15b 033d e5d8 b13d a6ec 83bd
00000130: e1ef 893e 74aa 413f f91f b13e 2039 963e
00000140: b7a9 eabc 9ae8 543d 1b91 3c3d 8ca9 d2be
00000150: 9ac5 723d 3e59 ee3f 049e ba3e 8d39 523f
00000160: 4b9d 6d3f 02fb e1bd 8d97 023e 193c 693d
00000170: 6b38 12bd bfda e83e f2b9 c6bd 52b9 c83f
00000180: dae7 9dbc a570 11c0 132a 86be a322 0e40
00000190: 064f f4bd db00 203f cc81 bebe e9b2 00be
000001a0: 9840 443f e525 b4be 0855 6ebd 835c 05be
000001b0: 2c0c 63bd 066f 53bd b9d8 8e3d 5706 03be
000001c0: 5dd7 1cc0 55f3 813d f4db 043d 035d 13bf
000001d0: bcad 9fbf f106 5f3d 0346 07bb 156b 50be
000001e0: 4c1b b73c 0a92 793f 82df 183e 790d b4bd
000001f0: 5ec4 343d 3858 36c0 7b78 e2be f582 85bf
00000200: 51d4 193d e01d 85bd f273 73be 6b71 c1bd
00000210: c855 2cbc 471d 3abe 50f2 45bd e243 50bf
00000220: 29db 893e ee4b 5cbd 852d 5f3e 8a8c 1e3f
00000230: 9495 e23b 7092 523f 9b07 24bf 5186 2f3c
00000240: 6838 c33c 717f 1e3f d8ad 2fc0 38b0 cf3c
00000250: cf8c 7f3e 47e9 a63f fe4d 49be b394 a2bf
00000260: 51ec 9e3e a694 403d 9f78 5f3e 997f 1bc0
00000270: 0380 2fc0 c7bb 84bf 27e4 33bf fcd2 03be
00000280: ff14 1bbd 357c d13e fb26 dbbe 2060 02bf
00000290: 43c9 fabf 3fa9 343f d242 e6bf cc93 babe
000002a0: 59e4 71be 9cd1 5c3e f1aa b5bd d3c0 d83d
000002b0: a7b4 793e cea2 9bbd 8418 1b3e c531 9cbc
000002c0: c129 8c3d 11fb 483f bfa1 bbba c9ab 543f
000002d0: b6e9 ca3c 019e b43d 2549 13bd d3a3 10bf
000002e0: 98fc 4bbd 57ed 56be c47d 763f 3431 91be
000002f0: 0e50 cf3e 0eb0 e23d 1b3c 053e 62eb 27bd
00000300: 550e 4d3e c84f d3be 67f9 c6be 5a16 013e
00000310: eb51 f33d 66d0 a5be 86fe 6abe 4537 04be
00000320: 9aad a6bd 2a9d f6be 69c4 5c3d b3d2 a7be
00000330: e819 443f 6803 1b3f 75b9 3f3d 04ee b2be
00000340: 2d96 d7bd def0 e1bc b03f 0d3e 6d9b 7fbe
00000350: c7a0 41c0 a8d7 293e af0d 3fbd c1cf 1f3b
00000360: 015e 953d 2957 9e3e 02a6 b1bd 71ee 20be
00000370: 7be4 a1bd a83e 09c0 8817 64bf 47f3 0abe
00000380: 47b7 3c3d 0830 b4be ea1e a5be 4ca2 eebe
00000390: 8d60 1a3d 4c1d 3f3d 80e4 14be a521 073e
000003a0: 8ebd e23c 9059 8abc 9c14 49bc 7665 c1bd
000003b0: a42e 223e 2dc9 833c 0ee9 023f a2c6 783f
000003c0: 2542 ca3e 8fde 403f fe66 93be d953 ce3d
000003d0: 9b2f 1dbd f925 463e 18ab 67be 423c 8d3d
000003e0: 6877 ed3f 3d43 733f dd02 51bd 932c 0ec0
000003f0: a30b 993e def7 4a3d 0cba b63d 9b2a dabf

l2.bias f4 [100]
-49.7431 -76.492065 -90.632706 36.766853 -65.57246 -2.2990868 -64.786476 -70.62192
15.584899 6.8303366 -3.1388052 9.637981 -86.80666 -95.40112 -82.81643 -2.7816498
17.430267 18.242403 -66.509415 -60.82691 -20.708855 -63.16395 22.765265 33.911476
-36.766575 -1.7838973 -70.06943 -75.409805 -0.89545643 -60.86222 -75.74714 -62.95512
-89.385025 -91.90041 -3.077553 -68.68491 -1.1417758 -70.9781 -2.2662265 -1.0376794
-93.72409 -92.908424 -69.83869 -68.86623 -91.555016 -90.9731 -67.29774 -2.701412
-37.66793 -64.0353 -71.7375 13.809991 -65.632195 -76.27624 -91.10462 -67.15577
-24.659737 -73.81826 -1.0862188 -68.59152 -86.42142 -88.15397 -2.6774576 -86.56139
-61.678802 2.0902748 -58.454327 0.25573242 -79.07007 -2.5168169 20.449389 -61.308712
-82.75713 -1.5340792 24.034262 -39.481255 -65.30084 -63.09792 -87.54856 -75.0887
-3.0645392 -86.78224 20.896833 -3.1091313 -69.753174 -62.45299 -55.69068 -84.66198
-62.759457 8.378923 11.896249 -50.378674 -83.11828 -72.50686 -82.505394 -1.2687199
-84.32074 -82.667595 -64.44612 -85.25671
00000000: eff8 46c2 f0fb 98c2 f243 b5c2 4211 1342
00000010: 1925 83c2 3d24 13c0 ad92 81c2 6c3e 8dc2
00000020: bf5b 7941 1e92 da40 2fe2 48c0 2c35 1a41
00000030: 039d adc2 60cd bec2 03a2 a5c2 8d06 32c0
00000040: 3071 8b41 71f0 9141 d204 85c2 c14e 73c2
00000050: bcab a5c1 e3a7 7cc2 431f b641 5aa5 0742
00000060: f910 13c2 bf56 e4bf 8c23 8cc2 d2d1 96c2
00000070: a23c 65bf ea72 73c2 897e 97c2 0bd2 7bc2
00000080: 22c5 b2c2 03cd b7c2 a1f6 44c0 ad5e 89c2
00000090: b625 92bf caf4 8dc2 db09 11c0 aed2 84bf
000000a0: bc72 bbc2 1dd1 b9c2 69ad 8bc2 82bb 89c2
000000b0: 2b1c b7c2 3af2 b5c2 7198 86c2 efe3 2cc0
000000c0: f6ab 16c2 1312 80c2 9a79 8fc2 b9f5 5c41
000000d0: af43 83c2 6f8d 98c2 9135 b6c2 c14f 86c2
000000e0: 2447 c5c1 f3a2 93c2 3809 8bbf dc2e 89c2
000000f0: c4d7 acc2 d54e b0c2 775b 2bc0 6f1f adc2
00000100: 18b7 76c2 10c7 0540 3bd1 69c2 5cef 823e
00000110: e023 9ec2 8713 21c0 5998 a341 1f3c 75c2
00000120: a783 a5c2 b55c c4bf 2b46 c041 ceec 1dc2
00000130: 089a 82c2 4564 7cc2 dd18 afc2 6a2d 96c2
00000140: 6921 44c0 8290 adc2 b72c a741 02fc 46c0
00000150: a081 8bc2 ddcf 79c2 42c3 5ec2 ef52 a9c2
00000160: af09 7bc2 1210 0641 0957 3e41 c383 49c2
00000170: 8f3c a6c2 8303 91c2 c302 a5c2 6a65 a2bf
00000180: 38a4 a8c2 cf55 a5c2 6ae4 80c2 6f83 aac2

l3.weight f4 [2, 100]
0.39001015 -18.66168 -15.425616 -11.138638 -18.38772 -0.5088914 -5.288019 -23.442745
0.7800006 1.2927978 0.6667436 0.9346654 -25.826647 -47.92108 -21.190609 0.62394
2.2507 -27.880709 -6.1251893 -8.860507 -0.16139723 -11.491542 -10.823776 -3.3271575
-5.206633 0.6042881 -14.358512 -21.982605 -0.18581504 -8.311007 -15.352401 -11.966813
-14.244156 -17.876059 0.11844591 -4.3749394 4.0098767 -15.016503 -0.29917246 5.979989
-16.849743 -16.352928 -4.946985 -6.3237867 -11.901089 -16.779905 -10.61781 0.6428312
0.1219127 -3.9732103 -6.571358 -1.7991488 -10.897009 -15.177978 -20.26027 -11.217204
0.206453 -16.629837 3.504574 -10.014247 -2.97068 -17.454746 0.41296747 -20.80771
-13.490482 -2.0329866 -3.9627185 0.4704384 -40.637985 0.6239812 -4.7833734 -21.238825
-3.5755157 -0.78533995 8.895712 -1.9107306 -11.561851 -3.8761623 -50.25736 -6.1328
-0.17895144 -27.828127 -7.304933 0.20131695 -8.937616 -1.8101616 0.6540787 -16.007967
-4.82906 -3.7183821 3.558358 -1.9507031 -17.099564 -9.756405 -20.766571 1.9851077
-18.602583 -14.216997 -12.274855 -18.11034 0.5450554 -17.194677 -15.38007 -10.319284
-18.285069 -0.46313807 -5.1908784 -22.981346 0.76193595 1.1255498 0.7023768 1.289791
-25.785095 -44.540024 -21.249073 0.63859576 2.2772949 -27.097885 -6.284714 -9.531339
-0.1553198 -11.620153 -11.027693 -3.5647535 -6.4332776 0.5224218 -14.646639 -20.793167
-0.068328656 -8.053631 -15.34008 -12.947439 -14.177727 -16.889576 0.268464 -4.4433722
3.2009325 -15.822398 -0.24582858 5.4195952 -16.815329 -15.981246 -5.0585666 -6.2546444
-11.44535 -16.115732 -11.22832 0.52010566 0.3296047 -4.1820016 -6.6472387 -2.1623032
-10.7092495 -15.362811 -20.899035 -10.793559 0.052349985 -16.235003 3.323595 -10.445136
-3.1134818 -16.515936 0.47816378 -19.772324 -12.957228 -2.5054739 -4.7017207 0.9491781
-38.34895 0.5606502 -4.8226967 -21.205387 -3.5224297 -0.9572706 8.081549 -1.9312152
-11.804111 -4.2329297 -48.060436 -6.22349 -0.10948186 -28.35339 -7.229708 0.37423798
-9.346297 -2.2578344 0.6905242 -15.90028 -5.327562 -3.702611 3.5470347 -2.3679767
-16.37498 -9.687358 -20.5904 2.2376783 -18.881128 -14.99448 -12.164086 -18.375448
00000000: 69af c73e 1f4b 95c1 53cf 76c1 dc37 32c1
00000010: 0d1a 93c1 b546 02bf 7437 a9c0 be8a bbc1
00000020: 1fae 473f 667a a53f b5af 2a3f 3b46 6f3f
00000030: f99c cec1 30af 3fc2 5e86 a9c1 88ba 1f3f
00000040: 780b 1040 b10b dfc1 8d01 c4c0 a3c4 0dc1
00000050: 5145 25be 5bdd 37c1 302e 2dc1 26f0 54c0
00000060: bd9c a6c0 a0b2 1a3f 77bc 65c1 60dc afc1
00000070: 4c46 3ebe e2f9 04c1 6fa3 75c1 1178 3fc1
00000080: 10e8 63c1 2b02 8fc1 c593 f23d 81ff 8bc0
00000090: e950 8040 9943 70c1 222d 99be 125c bf40
000000a0: 46cc 86c1 ccd2 82c1 b34d 9ec0 765c cac0
000000b0: dc6a 3ec1 3f3d 86c1 8de2 29c1 9690 243f
000000c0: 5ead f93d 1449 7ec0 9148 d2c0 824a e6bf
000000d0: 265a 2ec1 ffd8 72c1 0815 a2c1 ab79 33c1
000000e0: 6a68 533e e809 85c1 f14a 6040 5b3a 20c1
000000f0: 9f1f 3ec0 52a3 8bc1 7970 d33e 3176 a6c1
00000100: 04d9 57c1 741c 02c0 2e9d 7dc0 4ddd f03e
00000110: 4c8d 22c2 3bbd 1f3f 6511 99c0 1de9 a9c1
00000120: 40d5 64c0 0a0c 49bf d654 0e41 d292 f4bf
00000130: 57fd 38c1 0b13 78c0 8907 49c2 e63f c4c0
00000140: 0c3f 37be 01a0 dec1 03c2 e9c0 0826 4e3e
00000150: 7a00 0fc1 60b3 e7bf b471 273f 5110 80c1
00000160: a987 9ac0 f9f9 6dc0 23bc 6340 a4b0 f9bf
00000170: e8cb 88c1 3c1a 1cc1 f021 a6c1 0218 fe3f
00000180: 17d2 94c1 d278 63c1 ce65 44c1 fae1 90c1
00000190: c088 0b3f b38e 89c1 c414 76c1 ca1b 25c1
000001a0: d247 92c1 6f20 edbe ad1b a6c0 ccd9 b7c1
000001b0: 3c0e 433f 0412 903f f7ce 333f df17 a53f
000001c0: e047 cec1 fc28 32c2 1afe a9c1 037b 233f
000001d0: 33bf 1140 78c8 d8c1 611c c9c0 5d80 18c1
000001e0: 270c 1fbe 26ec 39c1 6e71 30c1 ec24 64c0
000001f0: 69dd cdc0 6fbd 053f a258 6ac1 6858 a6c1
00000200: e5ef 8bbd acdb 00c1 f870 75c1 b628 4fc1
00000210: f8d7 62c1 da1d 87c1 1d74 893e 1b30 8ec0
00000220: 14dc 4c40 8b28 7dc1 7dba 7bbe 536d ad40
00000230: cb85 86c1 2fb3 7fc1 c7df a1c0 0c26 c8c0
00000240: 2720 37c1 05ed 80c1 33a7 33c1 a525 053f
00000250: f2c1 a83e f5d2 85c0 2eb6 d4c0 2d63 0ac0
00000260: 1659 2bc1 13ce 75c1 3931 a7c1 6bb2 2cc1
00000270: f06c 563d 49e1 81c1 c8b5 5440 471f 27c1
00000280: 4943 47c0 a320 84c1 e2d1 f43e b82d 9ec1
00000290: ce50 4fc1 af59 20c0 7f74 96c0 56fd 723f
000002a0: 5365 19c2 c686 0f3f 8853 9ac0 a2a4 a9c1
000002b0: 7d6f 61c0 b00f 75bf 064e 0141 0f32 f7bf
000002c0: a3dd 3cc1 2974 87c0 e33d 40c2 d526 c7c0
000002d0: 0738 e0bd bed3 e2c1 c559 e7c0 1f9c bf3e
000002e0: 6f8a 15c1 5c80 10c0 32c6 303f 8c67 7ec1
000002f0: 637b aac0 94f7 6cc0 9e02 6340 ee8c 17c0
00000300: f6ff 82c1 6bff 1ac1 24b9 a4c1 1f36 0f40
00000310: 8d0c 97c1 64e9 6fc1 19a0 42c1 eb00 93c1

l3.bias f4 [2]
15.891568 14.1364155
00000000: dd43 7e41 c22e 6241
